Flutter-App/artistify/assets/cnn.pt (torch, 251287 bytes, 10 tensors)

conv1.weight f4 [6, 3, 5, 5]
00000000: a149 f9bd c73c 71bc 2931 653e 51dd e9bc
00000010: 0220 823d 3548 b53d 1013 113e 3c70 3c3e
00000020: e980 e83c aefc 9bbc 22d3 e73c 08f4 ee3d
00000030: 0d28 9e3d cc32 053e a15e ca3d a998 70bd
00000040: 3b34 543e 5359 513e 9031 833d 7378 4bbc
00000050: 49dd f93d e888 b53d 011d 553d dafa 033e
00000060: d47a 18bd 52b3 a6bb cd13 f9bc 309e 703c
00000070: 43f5 b23d ca86 06be 4c0a 31be 91bf 6d3d
00000080: ba1a 0e3e 32a8 b93d c5b3 2dbe 3296 b1bd
00000090: fbb4 583d d7cb d73d 883d 863d 68cf d1bd
000000a0: 3224 fa3c 77f8 d9bd 6614 2c3d 5e1c 0cbc
000000b0: 4b14 57bd 31c3 3a3c 4a1c 823c 70c1 56bd
000000c0: dacf 13be 26e2 c8bb 530c fc3c caad 4e3e
000000d0: 92af 0f3e 769b 5c3e 47e9 f33d da4c d3bb
000000e0: 17f4 aa3d 29ff 883e 20e6 573e 6ec5 273c
000000f0: 072f e63d 9bf8 183e f7df 233e 4629 ee3d
00000100: 5424 833d 6fc3 ed3c 42bb 223e 9ae9 4d3c
00000110: 43dd e13d 9717 4a3c 06f1 b6bd 880e 113e
00000120: 7312 013c e988 923d 7eb6 88bd 1511 28bd
00000130: aba2 f5bd 3d2b 9fba abc4 a4bd 805c 7fbd
00000140: 312b 82be eecd dbbe 3dec d4be cf0b adbe
00000150: 76cd 80be 233c e7bb e9cc 03be fe96 5ebd
00000160: bcd1 26bd bb12 033e e133 5a3e 35fa a03e
00000170: c637 cc3e bb74 db3e 990b c83e d006 3c3e
00000180: 6f2b fd3d ee28 9b3e 62ed 863e d962 bf3d
00000190: 90a6 693e 84ff ed3d cd9f ae3d 774e 503d
000001a0: bfdd f43d b39f 40bd 03b4 bebe 4bf8 80be
000001b0: 74fe 9bbe cdab 1cbd 8183 4ebe 03c6 71be
000001c0: 4096 bcbd 154b 92bd 5dfe 00be 76c0 d83d
000001d0: 17bc 593e 1826 183e 5b64 403e 8e23 883d
000001e0: 754a 84bd 39e1 02bd 0d5a d7bd 6ad3 f5bd
000001f0: a23b 62be a575 143e b3a6 b33e 2ab0 023e
00000200: 21bd b63e f6b8 3c3e 20d9 fbbd 403a e3bc
00000210: c07f 89be bc12 05be 6b66 9ebd 442d 23be
00000220: 6561 2fbd f5cd 833b 338b c0bd fc92 a83c
00000230: 5da7 403d ced7 693e ae3b 5b3e 447f 1c3e
00000240: 840f 44bd 70c6 3bbd de84 41bc f752 96bd
00000250: 8ecc 30be 988b d6bd c4ba 313e 2160 0f3e
00000260: 48fa 3e3d 025c 203d 8351 c83d de42 123e
00000270: 6bb6 433e 8b52 2c3d 74c1 8ebd 74b7 21be
00000280: 1694 9c3d 91f0 563e 1a12 9bbd 0c73 a0be
00000290: c9af e5bd 50ba 89bd 47ce c6bd b4bb 39be
000002a0: 7aa6 49be 98f5 15be ec3d 29bd 2900 5e3c
000002b0: 9706 8fbe 48fa 8ebe fec1 28be 34f7 99bd
000002c0: 64e8 ccbc ae2a aebd 44c6 95be 2841 a5be
000002d0: 9482 1b3e 45c3 ab3d f5ec 45be 8f90 bebe
000002e0: 8e97 9fbe f446 453e a75d 21bd f8cd 63be
000002f0: 764e 99be 00f2 83be 2b0d 263d 84fb c93d
00000300: 0631 26bd 0824 a8be 4c6f a3bc 4e8a 383e
00000310: e847 d7bb 8eaf 0dbe 8a8f 51bd a25f 013e
00000320: 39e5 67bb c516 f93c 23aa edbd 97af b5bd
00000330: 9e5b 9d3c 86f3 373e 41da 043e 7d24 f9ba
00000340: 777c 3cbe 91ea 38be d399 463e 02bb 573e
00000350: b501 ffbd 2b1e 27be a9a0 b5bd f41e cc3d
00000360: 7b00 dc3d af96 bd3c 8d3d 43be 646b 69bd
00000370: fbc9 9b3e 1655 843e 8840 3d3d c130 0c3d
00000380: 54ef 853d 8c45 2dbe b0a6 1bbe 0bc5 6fbe
00000390: 16e8 133e 92c5 afbb 8416 1d3d 0155 983d
000003a0: 4674 30bd 2248 0e3d 023c fc3c 5936 603d
000003b0: 8327 b83d 3d75 163d b300 78be 4a35 a6be
000003c0: 5184 f5bc 9060 f6bc d7ae 1ebe e288 29bd
000003d0: 8804 d8bd 4f63 6c3d fb83 1bbe d4ee 08be
000003e0: a689 c83d 1e57 263c eb31 14be ebc7 0dbe
000003f0: 3468 43bd 1d29 2a3e 1cde 173e e180 db3d
-0.12172247 -0.014723963 0.22382034 -0.028547915 0.06353761 0.08851663 0.14167428 0.18402189
0.028381782 -0.019041386 0.028298918 0.11667639 0.07722483 0.13007659 0.0988133 -0.058739338
0.2072305 0.2044423 0.06405938 -0.012418854 0.1220041 0.088640034 0.052029613 0.12888661
-0.037226513 -0.0050872946 -0.03040495 0.014686152 0.08738186 -0.13137355 -0.17289084 0.05804402
0.13877383 0.09065284 -0.16963108 -0.086712256 0.05290697 0.10536926 0.06554705 -0.10244638
0.030534837 -0.10643094 0.04201164 -0.008551685 -0.052509587 0.011399076 0.01588263 -0.05243057
-0.14434758 -0.0061304746 0.030767595 0.20183483 0.14031819 0.21543679 0.119097285 -0.0064483704
0.08347338 0.26757172 0.2108388 0.010239942 0.112394385 0.14938585 0.16003405 0.11628966
0.064034134 0.029023854 0.15891746 0.012567902 0.110285304 0.012334726 -0.0893269 0.141657
0.007877934 0.0715502 -0.066754326 -0.041031916 -0.11993917 -0.0012143623 -0.08045324 -0.062344074
-0.25423577 -0.4293055 -0.41586486 -0.33798072 -0.25156754 -0.0070567294 -0.12871136 -0.054343216
-0.040727362 0.12800114 0.21308853 0.31440893 0.39886302 0.42862496 0.39071348 0.18361974
0.123618 0.30304664 0.26352984 0.093450256 0.22817445 0.11621001 0.08526573 0.05085608
0.11956357 -0.0470273 -0.37246713 -0.25189433 -0.3046757 -0.03824978 -0.20167352 -0.23610692
-0.092083454 -0.07143227 -0.12597032 0.10583584 0.21263157 0.14858282 0.18788283 0.066474065
-0.06459514 -0.03195307 -0.10515223 -0.12003215 -0.2209306 0.14498003 0.3508812 0.12762514
0.3569117 0.18429932 -0.12297273 -0.027737737 -0.26855278 -0.12995428 -0.077343784 -0.15935236
-0.042817492 0.0040223547 -0.0940155 0.0205779 0.04703461 0.22836229 0.21409485 0.15282923
-0.04786636 -0.04584354 -0.011811463 -0.07340043 -0.17265531 -0.10475844 0.17356402 0.14001514
0.046625406 0.039150245 0.09781172 0.1428332 0.19112556 0.042070907 -0.06970492 -0.15792638
0.07645433 0.20990206 -0.07571812 -0.31337774 -0.11215169 -0.067249894 -0.09707313 -0.1813801
-0.19692412 -0.14644468 -0.04131882 0.013549843 -0.27934715 -0.27925324 -0.16480252 -0.075178534
-0.025013156 -0.08504234 -0.29252827 -0.32276273 0.1518653 0.08386854 -0.19328673 -0.37219664
-0.31170315 0.19265348 -0.039395954 -0.2224654 -0.29942673 -0.2577057 0.0405399 0.09862426
-0.040574096 -0.3283999 -0.019950531 0.18021509 -0.006569851 -0.138365 -0.05116228 0.12634137
-0.003538443 0.030406365 -0.11604717 -0.08871382 0.019208726 0.1796399 0.12973882 -0.0019008067
-0.18406855 -0.1805823 0.19394617 0.21067432 -0.124514975 -0.16320102 -0.08868534 0.09966841
0.10742279 0.02314314 -0.19066449 -0.05698718 0.30427536 0.25846165 0.04620412 0.034226183
0.06539789 -0.16921061 -0.15200305 -0.2341501 0.14444003 -0.0053641284 0.03835155 0.07438088
-0.043079637 0.03473676 0.030790333 0.05473933 0.08991911 0.0367329 -0.24219017 -0.3246253
-0.02997032 -0.030075341 -0.15496384 -0.041390307 -0.10547739 0.057711896 -0.15187065 -0.13372356
0.09791879 0.010152606 -0.14472167 -0.13845794 -0.047706798 0.16617246 0.14830822 0.10717941

conv1.bias f4 [6]
00000000: c71b 363f c8f3 60bd ab78 3b3e 5e90 b23e
00000010: 2372 673d 8aa5 393f
0.71136135 -0.054919988 0.1830775 0.34875768 0.056505334 0.7251822

conv2.weight f4 [16, 6, 5, 5]
00000000: 66d3 85bb c175 b1bc 4f3d 843c 634b b93d
00000010: 36f5 7e3d 5493 2bbd 9095 ccbd cf4b 64bd
00000020: 3cb0 c4bc 8ead d43d 88ec c33d 3611 43bd
00000030: 0e62 19be 7b39 18be e0a6 a2bc c190 453d
00000040: 3527 1ebd eb06 79bd fa32 8abd 3f87 b0bd
00000050: 5f5c 5e3d 4a2f 423d e89e b53d 0572 04bd
00000060: 63d1 3fbd 56b5 c5bc 4136 ce3d 24a6 9d3d
00000070: 0956 51bd 9005 a0bd c884 0f3e b2fd 043c
00000080: 4c81 81bd fba3 5dbd 939f 05bd 76b2 29bc
00000090: 5138 223d 89ed 293d f54f 54bd c841 0e3d
000000a0: aaf9 a0bd 204f c4bc 783c 1a3e 1903 c2bb
000000b0: 88d4 fcbd 8fd7 a93d 2785 df3d 6244 e5bd
000000c0: d29b d9bc 323f 183d 52d4 293d 963f 3f3d
000000d0: 2d05 81bd 1b87 33bb d507 343d 482b dcbc
000000e0: 91fd 5bbd 084f aa3d 6a39 b03b 3314 8bbd
000000f0: 9e40 f9bd bdaa 953c 701d 5d3c b137 1fbd
00000100: 44be 5dbd 98c9 0d3d 09f1 60bd 6c21 b1bc
00000110: 8f0e c7bc cbf7 8a3d 6ac0 24bd 1d18 56be
00000120: 0beb e2bd 545d ac3c 0158 923d acfd dc3d
00000130: 464b 25bd 5f8e 893d 3c2d 063e 06c6 ad3d
00000140: fd1e 213e 5f42 213e cb54 2b3c 69b9 95bc
00000150: 5f69 813d ebab 363e 2d75 223e 14bc 8b3c
00000160: ef59 bb3d b52b 0e3e 02cb 6b3d dcfb 4e3d
00000170: 3cff e23d ccb9 f23d 0090 1e3e 8ef9 c93d
00000180: 77eb 023d 7846 2e3e 4ede 513e 4f75 e63c
00000190: e982 9dbd 3f71 023d 33ab 47bd 7ad5 ba3d
000001a0: 72fa 21bd f43c 7cbd 9f58 cdbd ec91 3ebd
000001b0: a15a 57bd 90d2 c53c f02c a9bd 81de 50ba
000001c0: 3c2b dabd bef3 8bbd 8b83 923d 482e 943c
000001d0: d62b 96bc 40dd 743c 2e74 27bd 81b7 b9bd
000001e0: 0103 f0bd ad08 04be e929 e8bd af72 03be
000001f0: dd1a d0bd 470a 93bd c0a5 ed3c a826 253d
00000200: 7bac eb3b 43cc c93d 608d 3d3d 8384 1cbd
00000210: 5428 c0bd 8a7f 24bd 8fec dd3d 426e 32bd
00000220: 9c59 8fbc db6b 8cbd da58 76bd 847d 51bd
00000230: 29ea 59bd ee21 09bd 8930 68bd f69b 45be
00000240: e3c6 0bbe cecc 103d 260b 0bbc 023f a7bd
00000250: 40fc 51be 2868 31be f245 983d dfdc 1bbe
00000260: 8c7a 3cbe 27f6 753d d305 98ba 3056 eabd
00000270: b843 0bbe 7a00 38bd 375d 3a3e d35b ca3d
00000280: 6f9b 8bbd e771 16be f483 1e3e 6231 5e3e
00000290: f380 653c 0b6d efbd c9b1 fe3c 1b0c 4e3d
000002a0: e7ae 683d a6bd 12bd 39bb 8a3d 0254 463c
000002b0: a1ad 2b3d 9d58 dd3b 089e 1bbd 44c6 05be
000002c0: d30a 3ebe 125a 2e3d a4ab 183e 460c cf3d
000002d0: bdec 19be d7fc e1bd a1c5 b23d c156 aa3d
000002e0: d50f 643b b5d2 81bb 1d3b 86bd 5300 a9bd
000002f0: 5b39 25bd e1ff d2bd d1a2 0a3d d03b c1bd
00000300: 5143 04be b476 20be 69c3 10bd 2462 f33c
00000310: 5173 51bc f175 eabd 7160 bdbd 79cc 81bc
00000320: b1f2 5d3d 10b1 773e 8635 e43d 122c 83bd
00000330: 5af1 23bd 949a 613e da81 7a3e d3c2 1dbe
00000340: 068f 44be 9d8d a1bc c051 613e dd94 5c3d
00000350: 7e30 20be ea2b 60be e9c3 0f3d 6a8d d43d
00000360: 6814 a33c dc78 7ebd 84e0 f8bd 83f4 263d
00000370: a07b bbbc 305e b3bd b493 4c3d ab81 dabd
00000380: b497 02bd e0c2 db3c 7200 b3bd 2fed 01bd
00000390: d14a 563d 9ba2 af3b 6cb1 f33b f2ba 04be
000003a0: b3f5 ef3c 9bb7 113e 4a8f f43d 67d9 aabd
000003b0: 2a69 ccbd 1472 a23d d668 8cbb 40e2 f7bc
000003c0: 78a0 d8bd 5168 a7bd 3ec9 0cbd 74e0 fb3c
000003d0: 1039 22bd f506 8fbd f1d4 94bc 0b0f 06bd
000003e0: 0e00 38bd ca00 6cbc 1863 c93b 81fd a03a
000003f0: 256f e5bb dd74 09bd 31c5 143d 64b7 24bd
-0.0040840385 -0.021662595 0.016142515 0.09047582 0.06224557 -0.04188855 -0.09989464 -0.05573636
-0.024009816 0.103846654 0.09566599 -0.047623836 -0.14978811 -0.14865677 -0.019854963 0.04823375
-0.03861161 -0.060797613 -0.06748004 -0.08619546 0.05428731 0.04740838 0.088681996 -0.0323353
-0.046830546 -0.02413432 0.10068942 0.076977044 -0.05110744 -0.07813561 0.14015496 0.008117126
-0.063234895 -0.054111462 -0.032622885 -0.01035749 0.03960449 0.041486297 -0.051834065 0.034730703
-0.0786012 -0.023963511 0.1506213 -0.0059207794 -0.123452246 0.08293068 0.10914069 -0.111946836
-0.026563559 0.037169643 0.04146225 0.0466915 -0.06299815 -0.0027393762 0.04395278 -0.026876107
-0.053708617 0.08315855 0.005377938 -0.06790962 -0.12170528 0.01826989 0.013495788 -0.03887147
-0.05413653 0.034616083 -0.05491737 -0.021622382 -0.024298934 0.06785544 -0.040222563 -0.20907636
-0.11079987 0.021040596 0.07145692 0.107905716 -0.04035499 0.06716608 0.13103193 0.084850356
0.15734477 0.15747975 0.010457228 -0.018276887 0.06318926 0.17839019 0.15865012 0.017057456
0.09148013 0.1388386 0.05756665 0.05053316 0.11083838 0.11851844 0.15484619 0.09862052
0.031962838 0.17019069 0.20494959 0.028132109 -0.07690985 0.03184628 -0.048747253 0.09122749
-0.039545484 -0.061581567 -0.10026669 -0.04652588 -0.052576665 0.024148256 -0.08260524 -0.0007967726
-0.106527776 -0.068335995 0.07153996 0.018088475 -0.01833145 0.014945328 -0.040882282 -0.09068204
-0.11719323 -0.12893935 -0.11336119 -0.12836717 -0.10161374 -0.071796946 0.0290097 0.04032007
0.007192192 0.09853413 0.046277404 -0.03821231 -0.09382692 -0.040160693 0.108361356 -0.04356218
-0.017498784 -0.06856509 -0.06014333 -0.05114509 -0.05320183 -0.033479623 -0.05668691 -0.19297776
-0.13650088 0.035351567 -0.008486545 -0.08166315 -0.20506382 -0.17324889 0.07435216 -0.15220974
-0.18406123 0.060049202 -0.0011598415 -0.1144222 -0.13600051 -0.04492233 0.18199621 0.09880795
-0.06816756 -0.14691888 0.15480024 0.21698526 0.014007795 -0.1169072 0.031090634 0.050304513
0.056807425 -0.035825394 0.06773991 0.01210499 0.041913632 0.0067549483 -0.037992507 -0.13063914
-0.18558817 0.042566366 0.14909226 0.10109763 -0.15031715 -0.110345535 0.08729101 0.08317328
0.0034799476 -0.003961886 -0.06554244 -0.08252015 -0.0403379 -0.10302711 0.03384668 -0.094352365
-0.12916304 -0.15670282 -0.035342608 0.029709883 -0.012783841 -0.11448277 -0.0924691 -0.01584457
0.054186527 0.24188638 0.11143021 -0.0640489 -0.040025093 0.22031623 0.24463597 -0.15406351
-0.19195184 -0.019720847 0.22003841 0.053852905 -0.15643498 -0.21891752 0.035098944 0.10378535
0.019907191 -0.06212698 -0.12152198 0.04076053 -0.022886097 -0.08758199 0.04994555 -0.106692635
-0.031882957 0.026826322 -0.08740319 -0.031720337 0.052317444 0.0053599603 0.007436922 -0.12961939
0.029291963 0.14230196 0.11941393 -0.083422475 -0.09980996 0.07931915 -0.0042849584 -0.030259252
-0.10577482 -0.08174194 -0.034371607 0.030746676 -0.0396052 -0.06983749 -0.018167945 -0.03272919
-0.044921927 -0.014404485 0.006145846 0.0012282581 -0.007001775 -0.033558715 0.03632087 -0.040213957

conv2.bias f4 [16]
00000000: 1bbf 2a3f 0b05 8d3e 0b9a 793e d182 03be
00000010: 1910 213e c8e9 b6bd dee1 48be 35b5 ef3d
00000020: 7584 653e a038 0bbe 0336 12bd 2856 92bd
00000030: ea3f 74be 1ea3 8c3e ebeb 613e b01c be3e
0.66697854 0.2754291 0.24375169 -0.12842871 0.15728797 -0.08931309 -0.19617411 0.117044844
0.2241381 -0.1359582 -0.03569604 -0.07145339 -0.23852506 0.274682 0.22062652 0.37131262

fc1.weight f4 [120, 400]
00000000: 1c5f 593d 4d30 09bd 3bf2 183d 710d 1c3d
00000010: cafe 0e3d 5632 083d 48fb f5bc a3d8 2e3d
00000020: af95 603c b2f5 15bc d472 033d 4829 b33c
00000030: 715d 45bd bec5 d63c a6af b53c dd82 97bc
00000040: ccf2 ce3c bdc2 27bc 0d9b 373d daef cebc
00000050: d1b5 41bd fe3f c6bc 5149 133d 0520 f5bc
00000060: 7a8a c6bc 8bac 09bd 4d53 fc3c 22b4 2bbd
00000070: bdcf f6bc 5278 06bc 2380 96bc 4995 403d
00000080: 2fba 133c 8d46 a43c 391a 3abd 3e84 253d
00000090: 1289 d53c b53d 973b 6743 7ebc 665f a83c
000000a0: 59fd a83c 261e 81bc 2318 c7bc d938 98bc
000000b0: b6bb 0bbd 96b6 2f3d dcf4 dc3c ed29 88bb
000000c0: f455 60bc 5412 3b3d 24ad dbbc edbb b5bc
000000d0: 8046 28bc 475c f2bc c49e 623c 2ebb 11bc
000000e0: 4a9f 4f3d 792c 463d 55eb 303d 32a1 893d
000000f0: 6dfc abbb 8b73 803c e352 65bc 1bc8 aa3c
00000100: 5b74 863d 3a36 9f3c 81e7 3a3d e3b0 423d
00000110: d385 2abd c36f 96bc 90fa 50bd 7e82 25bd
00000120: e3e2 1fbd b11d 563d 5cff 1bbc 322f 93bb
00000130: fa16 cf3b c844 763d 4a4c 8d3b 9530 94bc
00000140: 46b9 14bd 5252 163d 7b06 e83c 116e 09bd
00000150: 7868 0e3d a8b7 3ebd a803 14bc 39c3 4cbd
00000160: 92e3 9c3c 1041 81bc 7705 fc3c 2cbe 0ebd
00000170: 19ba 0abd 10bb cb3b 817d 81bb 8831 823c
00000180: 0a92 e73c 1aa2 95bc f206 043d 719a b2bc
00000190: 1d9f 4dbc e392 21bd 1aa2 683c c434 853d
000001a0: a8bc 803c 5550 7c3b be09 723c b6d5 35b9
000001b0: 63c4 47bd fefa ccbc 3203 c7bc 283f 913b
000001c0: 5cf9 a7bb 335c de3c 97fe 2cbd 158e 85bb
000001d0: ddc8 223d 981c 2e3d 4ad1 823c cf7a 0e3d
000001e0: 4057 cbbc aba2 103d 06af 72bd 56c8 aebc
000001f0: 6515 14bd ebfd 69bd 98d8 4fbc 1da9 50bd
00000200: 9d69 15bd ab7d c83b ae85 e53c cb55 d53c
00000210: 17d0 abbc 2198 423c dfd4 91bc 44df 243d
00000220: e4ea fd3c 9734 18bd 7857 6dbb 213e 16bd
00000230: d947 503d f3e6 163c 631d 7f3d 3732 1f3d
00000240: 072a 42bd f63c 4c3d 6774 67bc 8c68 d8bc
00000250: 360d 9aba 6e81 2e3d 14d1 a1bc 7d9b 1bbd
00000260: d0a7 4c3d 1bba 9cbc cef0 4cbc 0e27 19bd
00000270: e2fe babc 210a 3abd c934 033d c155 18bd
00000280: eca7 973c 3fbd efbc 788f a4bc cb77 393c
00000290: 1129 533c 0464 33bd 3d6d 2ebd cd54 05bd
000002a0: 6e5c d3bb 7312 133c 06fa 8fbc 4d87 003d
000002b0: 925d 053d c7fb 133d f3cf 613d 14d3 003d
000002c0: 736f 08bd 4062 0ebc e895 13bd 1277 23bc
000002d0: 4f54 25bd c423 13bd 97ff 2e3c f07a 02bd
000002e0: 3c2d c6bc ce67 553c b80a 73bd 2755 863c
000002f0: a7e4 f93b abff 83bc bcbc 10bd 6a54 8bbd
00000300: 2d39 7dbd 662a 3c3b 85c5 ad3b f52c cc3c
00000310: 0d02 263d 8d35 8abb 9414 64bd 0c78 28bd
00000320: 8f71 db3c cad1 27bd 0f49 1abc 6baf 77bc
00000330: 0484 47bc e093 723d 7da5 9b3b 9ea8 49bd
00000340: 59ee 453c 5b25 b43c 79bd 493c 3604 f63c
00000350: 84af 50bc c46e 7ebc dc6a 8c3d d4f8 533d
00000360: 41f1 1d3d 9bd5 463d 010e 1abd eeeb b2bc
00000370: 7aa3 d83c 30a2 9b3c 1546 8dbc 9600 f43c
00000380: b275 30bd ca6b b4bb ee00 1fbd d6ea aebc
00000390: fd48 20bd 977d 1abc e3e2 b239 575b 66bc
000003a0: 6f74 0c3d 7f1b 373d 1554 17bd a6c8 1d3c
000003b0: eb6c 973c 19fb 103d d0b0 0b3d f11a 6fbd
000003c0: 2722 e83c d6e9 0dbd a07a 37bc eb92 3dbd
000003d0: 0cf4 653c b49d 64bb cdf4 573d 045d 483c
000003e0: 01f6 953c 9f9e 933d d693 33bd 2c6f 373d
000003f0: 5073 f9bb 3b15 7c3c 891c 20bd 6a3f 55bc
0.05306922 -0.03349333 0.037340384 0.038098756 0.034910955 0.03325113 -0.030027047 0.04268707
0.013707562 -0.009152817 0.03209193 0.02187027 -0.048184816 0.026217338 0.022178482 -0.018495018
0.025262259 -0.0102393 0.044825602 -0.025260855 -0.047292534 -0.024200436 0.03595859 -0.029922495
-0.024235953 -0.033611815 0.03080144 -0.041919835 -0.030128354 -0.008207398 -0.018371647 0.04701737
0.009016558 0.020053172 -0.045435164 0.04040932 0.026066337 0.0046155103 -0.015519 0.020553302
0.020628618 -0.015761446 -0.024303501 -0.018581795 -0.034114562 0.042898737 0.026972227 -0.0041553886
-0.013692368 0.045671776 -0.026815958 -0.022184337 -0.010270715 -0.029585017 0.013831798 -0.008894725
0.05068902 0.048382256 0.04319318 0.06720199 -0.0052485974 0.015680095 -0.0139968125 0.02084737
0.06565162 0.019435037 0.045630936 0.047531974 -0.04163153 -0.018363839 -0.051020205 -0.04040765
-0.039034735 0.05227441 -0.009521332 -0.00449171 0.0063198777 0.06012419 0.004312073 -0.018089572
-0.036309503 0.0366996 0.028323403 -0.033552233 0.034767598 -0.046561867 -0.009034075 -0.049990866
0.019151483 -0.015778095 0.030764325 -0.03484933 -0.033868883 0.006217368 -0.003951729 0.015892759
0.028267879 -0.018265773 0.032233186 -0.021802159 -0.012550143 -0.039446723 0.014198804 0.06504205
0.015714958 0.003850003 0.0147728305 -0.00017341119 -0.048771273 -0.025022026 -0.024293516 0.0044325776
-0.0051261615 0.027143573 -0.042234983 -0.0040757754 0.03974234 0.042507738 0.015968937 0.03478509
-0.024821877 0.035311382 -0.059248947 -0.021335762 -0.036153216 -0.05712692 -0.012685917 -0.05094253
-0.036477674 0.0061184964 0.028017845 0.026041886 -0.020973248 0.011877091 -0.0178017 0.040251985
0.030995794 -0.03715953 -0.0036215466 -0.036680344 0.05084977 0.009210336 0.062283885 0.038866248
-0.04740336 0.049862824 -0.014126874 -0.02641704 -0.0011753205 0.042603903 -0.019753017 -0.037990082
0.049964726 -0.01913171 -0.012508584 -0.03739076 -0.022826616 -0.045419816 0.03203276 -0.037191156
0.018512689 -0.029265044 -0.020087942 0.011320065 0.012888209 -0.043796554 -0.042584646 -0.032551575
-0.0064502275 0.008976567 -0.017575275 0.031379033 0.03255994 0.036128785 0.055129956 0.0314513
-0.03330941 -0.008690417 -0.036031634 -0.009977119 -0.040363606 -0.03592278 0.010681055 -0.031855524
-0.024191491 0.013025237 -0.059336394 0.016398026 0.0076261344 -0.016113123 -0.03533624 -0.0680321
-0.061822105 0.0028711795 0.005303087 0.024923781 0.0405293 -0.0042178095 -0.055683687 -0.04113011
0.026787547 -0.040971555 -0.009416833 -0.0151175065 -0.012177471 0.059223056 0.0047499523 -0.04923307
0.012080752 0.021990469 0.01231324 0.030031305 -0.012737159 -0.015529338 0.06856319 0.051750973
0.038560156 0.048543554 -0.03761101 -0.021841016 0.02644514 0.018998235 -0.017245332 0.029785436
-0.043080993 -0.0055060135 -0.038819246 -0.021352213 -0.039132107 -0.009429357 0.0003411985 -0.014059863
0.034290727 0.044703957 -0.03694542 0.009630358 0.018484553 0.035395715 0.03410417 -0.058375303
0.028336598 -0.03464683 -0.01119867 -0.04628269 0.014035236 -0.0034884037 0.052723695 0.012229208
0.01830578 0.07207989 -0.04384216 0.044783756 -0.0076126233 0.015385921 -0.039089713 -0.013015607

fc1.bias f4 [120]
00000000: ece3 c93c 4e86 7fbd 8aac 06bd bc8e 94bd
00000010: d54d 7b3a b0e3 a83d 6287 7dbc 1109 4abb
00000020: 9461 393d 3344 41bd ccc6 ccbc b7ce 98bc
00000030: cd3a 263c ce94 6abd 5574 9e3d 6df0 2cbd
00000040: 50e8 d83c 1f1b 0abd 07e7 a73c 5e42 943d
00000050: 43d4 a03d 8321 12bd a2a8 0a3e 5947 5cbd
00000060: d448 35bd f93f 7c3c c53b 8f3c 284b 08bd
00000070: 99ee 923d 2bda ca3c ab0d 843d 085f 2abc
00000080: f113 393d ad24 10bd 39c4 783d 55b2 ca3c
00000090: 12d9 2bbd 53e6 50bd 9bbb 023e 4b37 48bd
000000a0: c984 8e3c 22a0 4f3c 8d78 a63c 1a93 70bd
000000b0: 22ba 92bc 344c 30bd ff1a 83bd 8674 babd
000000c0: 32df 533d a62f ebbb 9fe2 5abd cc6a 373d
000000d0: 4641 94bd 4308 c63d 013e b43c 7b52 ed3d
000000e0: 599c 133a e58e 7e3d 4c87 283d 68e5 943c
000000f0: 058b 38bd ef68 a7bd 51ca e4bc f98b 03bd
00000100: bae3 743c 82d9 81bd ae79 693d a2bc 3ebd
00000110: 5887 8fbc 809b f83c 09df 64bc 2f1f 3ebd
00000120: cf8f e53c 0258 17bd e998 513d 1ca2 dd3c
00000130: 8242 eebc a878 a2bc 1ec6 a63d fea0 3d3d
00000140: d825 a33d 5248 9cbc 0ecb 34bd bde0 3dbd
00000150: 9aaa 82bc 8ef6 05bb a2fd 52bc 6005 03bd
00000160: 5c00 193b 6d55 0bbd 95e7 95bc ea42 fb3c
00000170: 533a 92bd 9172 f93c 03c7 943d 766f 9a3c
00000180: 2894 b03b 04aa 523c d11b c13d 2765 963d
00000190: d6ac d03c a67e f8bc 298d 2e3b ecd6 303d
000001a0: 1ae4 80bd 7819 ebbc 41d5 f23c 9f9f 793d
000001b0: 2052 273d cfef 8c3b 4888 893d 1ed7 393e
000001c0: 7a4e ef3c cfac 77bd e34e ebbc 014e 163c
000001d0: 226f f6bb 7593 eb3c 1dcf 803c 8af0 bdbb
0.024644814 -0.062383942 -0.03287939 -0.07253787 0.0009586488 0.08246553 -0.015474172 -0.0030828158
0.045259073 -0.04718418 -0.024997137 -0.018653257 0.010145855 -0.057270817 0.07737032 -0.042221475
0.026477963 -0.03371727 0.020495905 0.07239221 0.07852986 -0.03567649 0.13540891 -0.05377898
-0.044258907 0.015396112 0.017484555 -0.0332748 0.07174415 0.024762234 0.064479195 -0.010398634
0.045185033 -0.035191227 0.060734008 0.024743238 -0.04195506 -0.051000904 0.12766878 -0.048880856
0.017397301 0.012672456 0.020321155 -0.058734037 -0.01791102 -0.043041423 -0.064016335 -0.09104256
0.051726528 -0.007177311 -0.05343878 0.044779584 -0.072390124 0.096695445 0.022002222 0.115879975
0.00056309026 0.062147994 0.041144654 0.018175796 -0.045054454 -0.08174311 -0.027928503 -0.03211591
0.014946872 -0.063403144 0.05700081 -0.046566613 -0.017520592 0.030347586 -0.013969191 -0.046416458
0.028022675 -0.036949165 0.051171217 0.027054839 -0.029084448 -0.019832924 0.081432566 0.046296112
0.079662025 -0.019077454 -0.04413896 -0.046356905 -0.01595049 -0.0020441147 -0.012877854 -0.031987548
0.0023346161 -0.034017015 -0.018298903 0.030671556 -0.07140031 0.030450137 0.07264521 0.018851977
0.0053887554 0.012857918 0.09429134 0.07343512 0.02547304 -0.030333828 0.002663443 0.043173715
-0.06293507 -0.028698668 0.029642703 0.060943242 0.040849805 0.0043010483 0.06715447 0.18148467
0.029212225 -0.060467537 -0.02872414 0.009173871 -0.0075205723 0.028756836 0.01572376 -0.0057964968

fc2.weight f4 [84, 120]
00000000: 2ea0 bdbd 183a 7b3c e776 6c3d e574 bf3d
00000010: 8768 293b 3164 be3d 4612 183d 3c77 71bd
00000020: 6f4f 6abc c4de 76bd ea71 21bd 7868 30bc
00000030: c67f 563d f2f7 cebd ab28 7cbd 0758 b6bc
00000040: 2729 7ebd 7862 8f3d b6d5 14bd ae7f f23d
00000050: 428e c1bb ffba b0bd f37b 16bd 7dc5 803d
00000060: c07e af3d 6866 09be dc15 9f3b 2dce d23d
00000070: 6774 54bc fbde 923d 718e 703d 371c 06bc
00000080: 5814 b63d 5b16 2b3d c6d2 17bd a44d 133d
00000090: 0ed4 e2bc 405e a3bd 0af1 2ebd d6b7 5c3d
000000a0: f325 92bb 0345 a9bd e272 67bc 29c9 2e3d
000000b0: 29ed a83d 6f3f 313d 34e1 73bd a49e 9fbb
000000c0: e68d 89bd 3c9f 7cbd c1f8 c83c d2a8 cd3d
000000d0: afc5 b8bc ac37 22bd 083f f8ba c75e f13c
000000e0: bb08 c2bd cf67 023d b2b3 3c3d 52d7 92bd
000000f0: efa5 d9bd f6cc a43d 321a c53d 9cb8 02bd
00000100: 6c6b 393d c4df 72bc 8c36 73bd d48f 0cbd
00000110: 6b18 013d eda5 d3bd e4ee 22bd f61a eb3c
00000120: 9acf 383d 41a4 f7bc 2707 a8bd b0d9 86bd
00000130: df55 c5bc acca 5e3d 71b6 053e c711 fbbc
00000140: e290 1d3d f7a5 9ebc 8ba7 14bd 2203 11bc
00000150: 82c7 afbd 9772 433d bc2c 9cbd 7ded 53bd
00000160: 51af 013d 5fc7 b8bd 3bf8 ab3c 3a09 b3bd
00000170: 17e1 37bd 1b7a 80bc 35b8 57bd f540 3ebd
00000180: 7703 1a3d 8216 f4bc 857a 3fbc e29e a53c
00000190: 38c6 c03d c89e 86bd 76b0 ddbc 5973 fe3d
000001a0: 04e4 96bd d9ad 38bd bd86 fa3c ce48 35bd
000001b0: 00be 983d 9a12 9f3d 8e70 a3bd d2b1 5b3d
000001c0: 7984 b7bd 11ff 8cbd dff0 153d 60b9 953d
000001d0: ad46 c33d 0f46 0b3d a782 75bc efcf 55bd
000001e0: 83b1 ad3c 2641 a13d b8bd 4abc bba1 bebc
000001f0: 9d7e 343d b6bb ab3d 3a8e b0bd b9d9 d03d
00000200: c774 85bd 6dac 40bc 5e73 b5bc b3dd 803d
00000210: d26e ecbb 26fd 2cbd 1e4b febd b8d4 30bd
00000220: b5ca a2bd 4c40 7b3c 0fc3 8cbd 70de 24bc
00000230: 7546 76bd 10b5 b9bd e501 1abd aaba bfbc
00000240: 08ef fc3d 33c5 66bd 4345 a43d dad3 8cbd
00000250: 2531 6e3d ce29 7a3d 7142 a4bd 7eb9 babd
00000260: 538f cf3d 1624 95bd f1f8 84bd 971f 383d
00000270: 0446 4cbd cf52 f2bb abbc d73d 46fc 513d
00000280: 708a 653d 773f a4bc 5332 8a3b 467d cd3c
00000290: 2503 223b 5edf b63d c821 17bd 747b b43c
000002a0: 7281 48bd d535 16bb 6e52 c43d 0eef b7bd
000002b0: debc b83d 0970 17bd 204b 77bd 5f0a d5bc
000002c0: 8ae7 533d 38c4 6cbd 885e 45bd f4b7 b53c
000002d0: 07be e33d 8244 623d 0ef0 88bc ddd3 c43d
000002e0: 4291 4ebd 52c5 b23d 7b4b ec3c fad1 6d3d
000002f0: c531 4f3d 925c 94bc ec96 583c 3d97 3bbd
00000300: 3d24 033a c692 16bd be25 963d b319 32bd
00000310: bbfb 49bd 89d9 66bd 94b4 793c 7e40 09bd
00000320: be37 47bc 1ccd 053d d514 873c f5e3 62bd
00000330: b80d dcbc af0a d83d 9418 b7bc 4e73 063b
00000340: dfc5 3f3d 58c6 d9bc 060b 8bbc f184 ad3d
00000350: 75f2 d6bc e00d 01bd f29c 3dbd 0352 c5bd
00000360: 21d2 693d 36e2 fb3c 9e17 d8bc 1fab f83c
00000370: 76c7 f33c eec6 9f3d 9126 d43d b482 b73d
00000380: 91e5 9dbd 794c b2bd 233e c7bd 9584 a2bd
00000390: 68f3 923d 3a19 283d 9521 82bc aa47 80bd
000003a0: 1b0b 52bd af02 cb3d e60c 12bb ede4 cabb
000003b0: 9ea5 aa3c 4c65 f43c bdca aabd e561 f7bc
000003c0: 2ea3 da3c f6d3 a13d aa95 93bd 1342 8a3d
000003d0: b099 a1bc 27a6 1f3e 1164 883d d7ce 2fbc
000003e0: 2a03 c9bc a3ce 843d fea8 25bd 5351 53bc
000003f0: 0c4e 083e da52 853d 7cc4 2a3d eb27 1f3d
-0.092590675 0.015333675 0.05773058 0.09348468 0.0025849657 0.09296454 0.037126802 -0.0589516
-0.014301165 -0.06027104 -0.039415278 -0.010767095 0.052367948 -0.101058856 -0.06156222 -0.022258772
-0.062050965 0.07001203 -0.036336623 0.11840759 -0.005906851 -0.08629417 -0.0367393 0.06287668
0.085690975 -0.13417971 0.0048549008 0.10293231 -0.012967206 0.071714364 0.058729593 -0.008185438
0.08890599 0.041769367 -0.037066244 0.035962716 -0.027689006 -0.07976961 -0.04271034 0.053886257
-0.0044600903 -0.08265116 -0.014126511 0.04267231 0.0824836 0.043273386 -0.059540942 -0.0048712064
-0.06716518 -0.061675295 0.024532678 0.100419655 -0.0225552 -0.039603874 -0.0018939683 0.029464139
-0.094743215 0.03183728 0.04606981 -0.07169975 -0.106273524 0.08046906 0.09624137 -0.03191434
0.04526846 -0.014823858 -0.05937819 -0.034316853 0.031517427 -0.10334382 -0.039778605 0.02869938
0.04511986 -0.03022969 -0.08204489 -0.06584489 -0.024088798 0.0543925 0.13057877 -0.030648125
0.03846825 -0.019366248 -0.036292594 -0.008850845 -0.08582975 0.047716703 -0.0762572 -0.05174016
0.031661335 -0.09022402 0.020992389 -0.08741994 -0.044892397 -0.015683224 -0.052665908 -0.046448667
0.03760096 -0.029795889 -0.011686926 0.020217363 0.09412807 -0.06573254 -0.027061682 0.124243446
-0.07367709 -0.04508767 0.030581826 -0.044258885 0.074581146 0.0776722 -0.079804525 0.05363638
-0.08960814 -0.068845876 0.036606666 0.07310748 0.09534965 0.03400236 -0.014984763 -0.052200254
0.021202808 0.07873754 -0.012374334 -0.023270478 0.04406606 0.083854124 -0.086208776 0.10197777
-0.06516414 -0.0117598595 -0.022149738 0.06292286 -0.0072153592 -0.04223361 -0.12416671 -0.043171614
-0.079488195 0.015335154 -0.06873142 -0.010062799 -0.060125787 -0.09067738 -0.037599463 -0.023404438
0.12350279 -0.056340408 0.08021023 -0.06876345 0.058152337 0.061075024 -0.08020485 -0.09117411
0.10134759 -0.072822735 -0.06492794 0.044952 -0.04987146 -0.0073951255 0.105340324 0.051265977
0.056040227 -0.020049794 0.004217425 0.02508415 0.0024721113 0.08929323 -0.03689745 0.022031523
-0.048951574 -0.002292027 0.09586035 -0.08981143 0.090203986 -0.03697208 -0.06037438 -0.026005922
0.051734485 -0.057804316 -0.048185855 0.022182442 0.11120229 0.055241115 -0.01671603 0.09610722
-0.050431497 0.08729042 0.028844586 0.058061577 0.050584573 -0.018110547 0.013219576 -0.04579853
0.00050026533 -0.036761068 0.073314175 -0.04348154 -0.049312335 -0.0563598 0.015240807 -0.03350877
-0.012159286 0.03266631 0.016489426 -0.055393178 -0.02686201 0.10548913 -0.022350587 0.0020515504
0.046819564 -0.026583835 -0.01697303 0.08472622 -0.02623866 -0.031507373 -0.046292253 -0.09634783
0.05708516 0.030747514 -0.026378449 0.030355034 0.029758196 0.07801615 0.103589185 0.089604765
-0.07709802 -0.08705992 -0.097286485 -0.07935444 0.07175332 0.041039683 -0.015885154 -0.06263669
-0.051280122 0.09912621 -0.002228552 -0.006191841 0.020830926 0.029833458 -0.083394505 -0.030198047
0.026689138 0.079017565 -0.072062805 0.06750884 -0.019726604 0.15590726 0.06659711 -0.010730467
-0.024537642 0.06484725 -0.040444367 -0.012897807 0.13311023 0.06509943 0.04169129 0.038856428

fc2.bias f4 [84]
00000000: 111b 183e e0e8 8c3b ef9b 9f3c 8deb 65bd
00000010: 9da3 013e f98b 183e 7150 083d 4106 4b3a
00000020: b415 593d 6e09 55bc 02d2 42bd 1cf8 9dbc
00000030: 1a9c a9bd f034 cd3d 8007 0ebd be6a cbbb
00000040: 1695 413d ec2d 893d 58f4 8a3d 84fc 9ebc
00000050: 663c ea3d 60f4 bdbd 30e9 063d fb6a cd3d
00000060: be83 67bd e73a 223e fcbf b63d ad52 803d
00000070: 2552 253d 1687 c6bc 9455 243d 751a 2e3c
00000080: 9d68 ae3c 0faf d03d 8139 55bd 0114 453d
00000090: 2ddd 25bd c0a0 80bb b5af 85bc cc7b 1d3e
000000a0: 0cd1 6f3c 6607 1d3e d172 93bd eaec 343e
000000b0: 5059 263d 51c6 c03c 96cd 3ebd 6922 ec3c
000000c0: edd7 18bd 20c1 afbd 8ad4 df3d 81fa 333e
000000d0: 344b 713e 504e 343e 75c8 86bd 73eb 793e
000000e0: 5001 96bd e8c1 9dbd 8276 b7bd a363 b8bd
000000f0: 3e83 0ebc 0358 a4bd 6e07 053e 129a d33c
00000100: 0337 533d 4a29 ae3d ef59 363e 3ffd 3abd
00000110: 594e 5b3e e22e 58bd 5b68 b7bd c7a8 14bd
00000120: 512b 82bd 9420 1dbd 2f81 3dbe 4d50 e83d
00000130: 10a3 2c3e afa9 ffbc 1c10 863e f80e efbd
00000140: c053 453d be4c 06be 9986 4fbc ceee f4bc
0.14854075 0.004300222 0.019483535 -0.05613284 0.1266007 0.14897145 0.03327984 0.00077447674
0.052999213 -0.0130027365 -0.04756356 -0.019283347 -0.08281727 0.10019863 -0.03467512 -0.006207793
0.04726132 0.06698212 0.06784886 -0.019407518 0.11437301 -0.092751265 0.03293723 0.100301705
-0.056522124 0.15842782 0.08923337 0.06265769 0.040361542 -0.024234336 0.040120676 0.010626425
0.021290118 0.1018964 -0.052056793 0.04811478 -0.040494133 -0.003925413 -0.016319135 0.15379256
0.014637243 0.15334854 -0.07199634 0.176685 0.04061252 0.023532065 -0.04658278 0.028825002
-0.037315298 -0.085817575 0.109292105 0.17576028 0.23563844 0.17607999 -0.06581203 0.24406223
-0.07324469 -0.07703 -0.089581504 -0.09003379 -0.008698283 -0.080245994 0.12991115 0.025830302
0.051566135 0.08503969 0.17807744 -0.04565167 0.21416606 -0.052779086 -0.08955451 -0.03629377
-0.06355918 -0.038361147 -0.18506311 0.11343441 0.16859078 -0.031208841 0.26184165 -0.11672777
0.048175573 -0.13115212 -0.012666368 -0.029899027

fc3.weight f4 [10, 84]
00000000: b2de 3ebe 82dd 72bd 407b 77be 2e67 103e
00000010: 34f0 083e 7e0d 35bd a4a0 fc3c 741d 92bd
00000020: 5e4a 543d 5df1 edbc 66c8 663e 1542 2c3e
00000030: 3edf 253e dfc1 8fbd af7d 97bd 614b a43d
00000040: 044a 7b3e f499 0ebe 7095 a1bd 9842 c03d
00000050: f218 0b3e daf0 003e 05b8 d83c 413b e23c
00000060: f7e5 263e 8d10 783c 33c2 2e3d 540c 8d3e
00000070: 73d8 023d 551a 06be 921c c0bd 5caf 05be
00000080: 6678 b4bc d9e6 d93d eaa6 273d e763 2bbe
00000090: 98df 2c3a cc43 d23d 6e7f febc 6fba 8e3e
000000a0: ec10 0d3e 997f 17be f56e 26bd e6c8 babd
000000b0: 8a8d 303d 0584 853e 3871 49be 2b14 79bd
000000c0: f776 063e 51e1 573d bc73 0abc dc0e 72be
000000d0: b1c7 f6bd 1e61 17be 8342 913d 04a9 6abc
000000e0: 26b2 66bd 3645 683d 6b9b c03c 898c 0dbe
000000f0: dba3 ddbd 2a49 ef3d e8b5 70be 779d 363d
00000100: 75c5 933d c7c0 12be c9bd 843e 0fe7 0a3e
00000110: 8409 dfbd 7e54 f43d c619 cdbc fae8 773d
00000120: 7326 9f3d 0461 e2bd 9926 903e 5f6d f93d
00000130: ba8b a6bd 8c83 abbc b10b 3a3d 2c86 783c
00000140: da62 05bd 2fdf 1c3e 9e0d 883c 5b42 243e
00000150: 01c8 07be 05df b83d 1549 bf3d 6d8f 07be
00000160: cbcf 2a3d 6139 88bd d561 923e 6d21 4abd
00000170: 1a22 a83d 5bcd 733e 3d02 f03d 40ef 95bc
00000180: 76b0 083e 77f8 573e 2ca3 be3d 05b2 8838
00000190: c0fc 2dbc 6fa2 c43b 9ddf 89be 3274 13be
000001a0: e605 a4bd bf63 2f3e 121c a6bb 19dd 0f3e
000001b0: 4214 99bd 8c02 1fbd 7482 3f3d 260b 93bd
000001c0: 6f5c 35be 9fc1 a53d 8456 583e f0c5 343e
000001d0: df98 0dbd 2b9f e7bc ccf4 1f3c 0955 84be
000001e0: 51d9 edbd 8a24 443e 4f99 3a3d 5c22 1bbe
000001f0: 63bf 32be 97e8 5b3b c17f 1cbe 56a8 6bbd
00000200: cfe1 a03d 1d15 26be 0f83 2dbc 6d2c 63bd
00000210: 3d61 843e b49f ce3d 5a88 643d 5c76 913c
00000220: 467c c0bd 7f16 aebd 838b 1abe 0f59 68be
00000230: 2a9c 133e 0719 7cbe dcc2 ab3d b80e 423e
00000240: b3e2 343e b024 753d 8814 9bb9 ed4a 0b3d
00000250: bc80 0fbe dc22 a2bd 0fc2 8fbd 1232 19be
00000260: 9dc8 4cbe 005f 0d3e 9796 d13d 0c2c 163e
00000270: 19f5 cf3c 4493 003e 2e5e 88bc edf5 43be
00000280: 9401 81bd 84ba 463d be79 65be cf94 74bd
00000290: bdbc 61be 479c 053e bcb1 13bd ccdf b63c
000002a0: f603 373d f4e2 4b3d 9a56 6cbe 0ca3 003c
000002b0: 68ba 223e 1dc1 a23e 0740 bdbd 5443 1b3b
000002c0: 1d0c a8bd d7c7 b03d fb28 033e 6923 733e
000002d0: 23fe 133c 3d6a 273e cb62 b1bd 2765 ac3d
000002e0: d659 5ebe b3d0 61be f995 d13d 37bc 4cbd
000002f0: 8e01 bd3d 8aba c0bd 2f23 053d 6415 2c3d
00000300: b691 8ebc 51cd b1bc c64b 26bd ed73 c03d
00000310: 79a0 9d3e 99e2 bdba 2964 58bd 5780 9a3d
00000320: d186 3ebd 9d81 e13d 04ab 9e3d 1570 503d
00000330: 3eb3 07bd a9af b1bd fbe8 3abd 2a50 37bc
00000340: b2d9 113e 8cac 1a3e 9a5b d3bd f132 663d
00000350: 06fd 423e f2f0 1b3d dfcf d53d 13b0 e4bc
00000360: ea57 53be 1c34 a43c 71c7 9c3d c63b b7bd
00000370: 3248 d23d 3880 bc3e 4016 90bd de12 f23d
00000380: 38d7 f9bc 9eb6 a1bb 5dbf 363d cac9 eebd
00000390: 85c2 f8bd 52e8 6dbc 2e47 bbbd fc69 b0bc
000003a0: 4d41 d1bb 1eb3 4c3c 5745 cd3c fa59 853d
000003b0: 933d 98bd 2ddc 6a3d 8f4a cfbd 0c23 d63d
000003c0: a521 8c3d feb6 9d3d 2b75 2b3e cec2 063e
000003d0: bd6e 4f3c c0ac 1c3e 6055 623e 7da3 07be
000003e0: df7b ab3d a28d 3fbe cb7a 553e 8917 8bbd
000003f0: 4523 643b 7f09 1bbd 2c42 833d 7ddc 443c
-0.18639639 -0.059293278 -0.2416811 0.1410186 0.1337288 -0.04420232 0.030838318 -0.07134524
0.051828735 -0.029045755 0.22537383 0.16822083 0.16198441 -0.070194 -0.07397019 0.0802219
0.24539953 -0.13925916 -0.07889831 0.09387702 0.13583735 0.12591878 0.026454935 0.027616145
0.16298662 0.015140665 0.04266567 0.27548468 0.031944703 -0.13095982 -0.09380449 -0.13055176
-0.022030067 0.10639734 0.040930666 -0.16737328 0.00065945974 0.102668375 -0.031066623 0.27876613
0.13775986 -0.14794768 -0.04063316 -0.091203496 0.043103732 0.26077285 -0.19672096 -0.06081025
0.13131319 0.052705113 -0.008450445 -0.23638481 -0.12049807 -0.14783141 0.07092764 -0.014322523
-0.05632224 0.05670663 0.023511609 -0.13823141 -0.108222686 0.11683877 -0.23506892 0.044583764
0.07215396 -0.14331351 0.25926045 0.13564704 -0.10890487 0.11930178 -0.025036704 0.06052492
0.077710055 -0.110536605 0.28154448 0.12179064 -0.081321195 -0.02093675 0.045421306 0.015168708
-0.032564975 0.15319513 0.016608056 0.16040938 -0.13259889 0.090269126 0.09340111 -0.13238306
0.041702073 -0.06651569 0.28590265 -0.049348284 0.08209629 0.23808806 0.11719177 -0.01830256
0.13348565 0.21090876 0.09308466 6.518144e-05 -0.010619342 0.006000809 -0.26928416 -0.14399794
-0.080089375 0.17127894 -0.005069264 0.14049186 -0.07474567 -0.03882079 0.04675527 -0.07179861
-0.17711042 0.08093571 0.21126753 0.17653632 -0.034569617 -0.02827414 0.009762954 -0.25846127
-0.116137154 0.19154564 0.045556363 -0.15149826 -0.1745582 0.0033555382 -0.15283109 -0.057533585
0.078555696 -0.16218992 -0.010590329 -0.05546229 0.25855437 0.10089055 0.055794097 0.017756633
-0.09398703 -0.085003845 -0.15092282 -0.22690223 0.1441504 -0.24618922 0.08386776 0.18950927
0.17664604 0.05984944 -0.000295792 0.034007 -0.14013952 -0.07916805 -0.070194356 -0.14960507
-0.19998403 0.13805771 0.10233801 0.1466524 0.025385426 0.12556177 -0.01664647 -0.19136782
-0.06299129 0.04851772 -0.22409722 -0.059712227 -0.22044654 0.13047896 -0.036058173 0.022323512
0.04468151 0.049776986 -0.23079911 0.007851373 0.15891421 0.3178796 -0.09240728 0.0023691254
-0.082054354 0.086318664 0.12808602 0.23743977 0.009032759 0.1634912 -0.086614214 0.08417731
-0.21713957 -0.22052269 0.10233683 -0.049984183 0.09228812 -0.094105795 0.032504257 0.042012587
-0.017403465 -0.021704348 -0.040599607 0.09397111 0.30786493 -0.0014487087 -0.052829895 0.0754401
-0.04651529 0.1101105 0.077474624 0.05088814 -0.033129923 -0.08676083 -0.045632344 -0.011188546
0.142432 0.15104884 -0.10320206 0.056200925 0.19041833 0.03807158 0.10440039 -0.02791599
-0.20639005 0.020044379 0.07655228 -0.08946948 0.102676764 0.36816573 -0.07035494 0.11820005
-0.030498132 -0.0049350997 0.044616092 -0.11659582 -0.12146477 -0.0145207215 -0.09144436 -0.021534912
-0.0063859583 0.012493877 0.025057478 0.06511302 -0.07433619 0.057338882 -0.10121643 0.104559034
0.06842355 0.077009186 0.16743915 0.1316025 0.012660679 0.15300274 0.2210288 -0.1324596
0.08373236 -0.18706372 0.20847623 -0.06791598 0.0034811061 -0.037850853 0.06409106 0.012015459

fc3.bias f4 [10]
00000000: 5951 5bbe b166 4dbe e023 b43d f99b 81bd
00000010: 43cf e63e 2504 73be 92c0 af3e d8e3 a4bd
00000020: 00fe 9fbd f523 7abe
-0.2141775 -0.20058705 0.08795905 -0.063285775 0.45080003 -0.2373205 0.34326607 -0.0805127
-0.078121185 -0.24427779
